Using cuda device
2025-05-12 16:33:36,755 - root - INFO - Loaded ViT-B-32 model config.
2025-05-12 16:33:38,868 - root - INFO - Loading pretrained ViT-B-32 weights (laion2b_s34b_b79k).
2025-05-12 16:33:39,528 - root - INFO - Loaded ViT-B-32 model config.
2025-05-12 16:33:40,709 - root - INFO - Loading pretrained ViT-B-32 weights (laion2b_s34b_b79k).
Initial context: "X X X X X X X X X X X X X X X X"
Number of context words (tokens): 16
CLIP(
  (visual): VisionTransformer(
    (conv1): Conv2d(3, 768, kernel_size=(32, 32), stride=(32, 32), bias=False)
    (patch_dropout): Identity()
    (ln_pre): LayerNorm((768,), eps=1e-05, elementwise_affine=True)
    (transformer): Transformer(
      (resblocks): ModuleList(
        (0-11): 12 x ResidualAttentionBlock(
          (ln_1): LayerNorm((768,), eps=1e-05, elementwise_affine=True)
          (attn): MultiheadAttention(
            (out_proj): NonDynamicallyQuantizableLinear(in_features=768, out_features=768, bias=True)
          )
          (ls_1): Identity()
          (ln_2): LayerNorm((768,), eps=1e-05, elementwise_affine=True)
          (mlp): Sequential(
            (c_fc): Linear(in_features=768, out_features=3072, bias=True)
            (gelu): GELU(approximate='none')
            (c_proj): Linear(in_features=3072, out_features=768, bias=True)
          )
          (ls_2): Identity()
        )
      )
    )
    (ln_post): LayerNorm((768,), eps=1e-05, elementwise_affine=True)
  )
  (transformer): Transformer(
    (resblocks): ModuleList(
      (0-11): 12 x ResidualAttentionBlock(
        (ln_1): LayerNorm((512,), eps=1e-05, elementwise_affine=True)
        (attn): MultiheadAttention(
          (out_proj): NonDynamicallyQuantizableLinear(in_features=512, out_features=512, bias=True)
        )
        (ls_1): Identity()
        (ln_2): LayerNorm((512,), eps=1e-05, elementwise_affine=True)
        (mlp): Sequential(
          (c_fc): Linear(in_features=512, out_features=2048, bias=True)
          (gelu): GELU(approximate='none')
          (c_proj): Linear(in_features=2048, out_features=512, bias=True)
        )
        (ls_2): Identity()
      )
    )
  )
  (token_embedding): Embedding(49408, 512)
  (ln_final): LayerNorm((512,), eps=1e-05, elementwise_affine=True)
)
2025-05-12 16:33:41,009 - cocoop_training - INFO - Loading Flowers102 dataset from ./data
2025-05-12 16:33:41,048 - cocoop_training - INFO - Dataset loaded: 1020 train, 1020 val, 6149 test
2025-05-12 16:33:41,049 - cocoop_training - INFO - Using cuda device
2025-05-12 16:33:41,049 - root - INFO - Loaded ViT-B-32 model config.
2025-05-12 16:33:42,091 - root - INFO - Loading pretrained ViT-B-32 weights (laion2b_s34b_b79k).
…
