Using cuda device
2025-05-12 10:47:02,353 - root - INFO - Loaded ViT-B-32 model config.
2025-05-12 10:47:27,212 - root - INFO - Loading pretrained ViT-B-32 weights (laion2b_s34b_b79k).
2025-05-12 10:47:29,752 - root - INFO - Loaded ViT-B-32 model config.
2025-05-12 10:47:35,631 - root - INFO - Loading pretrained ViT-B-32 weights (laion2b_s34b_b79k).
Initial context: "X X X X X X X X X X X X X X X X"
Number of context words (tokens): 16
CLIP(
  (visual): VisionTransformer(
    (conv1): Conv2d(3, 768, kernel_size=(32, 32), stride=(32, 32), bias=False)
    (patch_dropout): Identity()
    (ln_pre): LayerNorm((768,), eps=1e-05, elementwise_affine=True)
    (transformer): Transformer(
      (resblocks): ModuleList(
        (0-11): 12 x ResidualAttentionBlock(
          (ln_1): LayerNorm((768,), eps=1e-05, elementwise_affine=True)
          (attn): MultiheadAttention(
            (out_proj): NonDynamicallyQuantizableLinear(in_features=768, out_features=768, bias=True)
          )
          (ls_1): Identity()
          (ln_2): LayerNorm((768,), eps=1e-05, elementwise_affine=True)
          (mlp): Sequential(
            (c_fc): Linear(in_features=768, out_features=3072, bias=True)
            (gelu): GELU(approximate='none')
            (c_proj): Linear(in_features=3072, out_features=768, bias=True)
          )
          (ls_2): Identity()
        )
      )
    )
    (ln_post): LayerNorm((768,), eps=1e-05, elementwise_affine=True)
  )
  (transformer): Transformer(
    (resblocks): ModuleList(
      (0-11): 12 x ResidualAttentionBlock(
        (ln_1): LayerNorm((512,), eps=1e-05, elementwise_affine=True)
        (attn): MultiheadAttention(
          (out_proj): NonDynamicallyQuantizableLinear(in_features=512, out_features=512, bias=True)
        )
        (ls_1): Identity()
        (ln_2): LayerNorm((512,), eps=1e-05, elementwise_affine=True)
        (mlp): Sequential(
          (c_fc): Linear(in_features=512, out_features=2048, bias=True)
          (gelu): GELU(approximate='none')
          (c_proj): Linear(in_features=2048, out_features=512, bias=True)
        )
        (ls_2): Identity()
      )
    )
  )
  (token_embedding): Embedding(49408, 512)
  (ln_final): LayerNorm((512,), eps=1e-05, elementwise_affine=True)
)
Traceback (most recent call last):
  File "/home/joaquin_l_calvo/projects/DL2024/deeplearning/deep_learning.py", line 656, in <module>
    print(base_model)
  File "/home/joaquin_l_calvo/venvs/auditect-base/lib/python3.12/site-packages/wandb/sdk/lib/console_capture.py", line 147, in write_with_callbacks
    n = orig_write(s)
        ^^^^^^^^^^^^^
BrokenPipeError: [Errno 32] Broken pipe
